…
To enable them in other operations, rebuild TensorFlow with the appropriate compiler flags.
2022-10-13 13:43:33.842746: I tensorflow/core/common_runtime/gpu/gpu_device.cc:1616] Created device /job:localhost/replica:0/task:0/device:GPU:0 with 1661 MB memory:  -> device: 0, name: NVIDIA GeForce RTX 3050 Ti Laptop GPU, pci bus id: 0000:01:00.0, compute capability: 8.6
Model: "sequential"
_________________________________________________________________
 Layer (type)                Output Shape              Param #
=================================================================
 lstm (LSTM)                 (None, 5, 256)            266240

 lstm_1 (LSTM)               (None, 5, 256)            525312

 time_distributed (TimeDistr  (None, 5, 1)             257
 ibuted)

 flatten (Flatten)           (None, 5)                 0

 dense_1 (Dense)             (None, 5)                 30

 dense_2 (Dense)             (None, 1)                 6

=================================================================
Total params: 791,845
Trainable params: 791,845
Non-trainable params: 0
_________________________________________________________________
Epoch 1/1000
2022-10-13 13:43:36.686513: I tensorflow/stream_executor/cuda/cuda_dnn.cc:384] Loaded cuDNN version 8201
2022-10-13 13:43:37.416123: I tensorflow/stream_executor/cuda/cuda_blas.cc:1614] TensorFloat-32 will be used for the matrix multiplication. This will only be logged once.
…
